models/lstm_motor_model.pth (torch, 21971 bytes, 5 tensors)

weight_ih_l0 f4 [128, 2]
00000000: f0e6 af3e 8059 d63d 3a44 17bd 7e8e 3e3e
00000010: 581d 34bd 44af bbbe 49c7 0fbd a9f2 5a3e
00000020: b713 0c3b be05 2abc c198 bf40 85fc 9bbe
00000030: b4b3 b63f 8854 733c af98 0440 3e4b 593c
00000040: 0ee7 8cbb 0fd2 4fba bb7e a03c 8257 b13c
00000050: e7cb 00bd 9c87 31be edc2 b3bc c463 2ebe
00000060: 5a8f 5f3c 62b8 3dbe d415 b1bd b27a 0cbf
00000070: 0cfa b5bd b284 c83d b59c 05bb 6a8f 73be
00000080: df1a 71bd 3bb1 86be 789d 243f 0bc1 8ebe
00000090: fb21 0fbd 1e01 12be 309d 82bc 735e d7bb
000000a0: 6974 c73c 0a71 6cbe 5cf5 f43c 2c48 a1ba
000000b0: 68fa 04c1 c983 f23e 6efd c2bd 9bee 403e
000000c0: 656f 19bd 2421 0c3e 1df1 083e 2864 71bd
000000d0: 2011 4dbd b321 0a3e 8642 c6bc ce5c ccbe
000000e0: c86e c83b e908 f43e d48d b23c 5f2d 183e
000000f0: 4e5a 8a3d a7b8 a23e 536c c2bd f517 803d
00000100: c72e 983e bae3 86bc 82b6 563e 8682 223e
00000110: 52b5 05be e91e a5be a738 323f b66f c03e
00000120: bc8d 313e f8ba 523e 6885 03bf 7755 0ebd
00000130: d3b1 8fbf 1246 3ebe e8cc 76bf 615f 803e
00000140: 8f02 293a 3bf0 813e ef20 573e f33f 0d3e
00000150: dcbc 8c3c 3115 ca3d 3df3 033d feaa e93c
00000160: f2e0 3a3e 648b 0abc 5725 a8bd 036a 6dbe
00000170: 2459 ae3c 7a33 f8bc 3262 2f3c 1cd4 67be
00000180: 7eed 32be 9d2f 47be f1ae 803d 00ad 8abd
00000190: cf78 7c3d 38f0 343e 9b18 04be e904 df3d
000001a0: b6aa c13c 724b 27be cab9 e93c e6d4 933e
000001b0: f036 0f3e fa7b 8ebe 05c4 bcbc 36ef 32bd
000001c0: 9265 2b3e 820e 92bd acd9 ccbd 584f 333e
000001d0: 56aa bf3d e954 64bd 401a ff3d 7b30 dbbd
000001e0: 5d56 15bd 6692 e33d 9c85 68bd e4ff b4be
000001f0: ee2c 093d 6a90 333e fa37 153f 2dcc 5eb9
00000200: 86d8 7c3e 2567 b13e 3c35 edbd d3a8 573e
00000210: 91c2 b0c0 f4c9 8c3e d81d 183e 3834 3fbe
00000220: f9f6 c3c0 0ebd 9b3e 2018 8640 4b29 edbe
00000230: 6ed5 9040 c2e0 48be cc00 81be 889c 023e
00000240: a65f fa3b f226 013e e63d 95bc d08a f6bd
00000250: e73f 0dbd 287d 85be 4a55 fe40 8b4e d7be
00000260: 96d7 9e3b bd60 1f3e 0299 98be 945d 993f
00000270: b286 213c 0565 a7be 3e77 853c 40db a23e
00000280: 72ac cc3c 826a 473f 4031 b63c 269d c4bd
00000290: e783 cfbd bbd0 623e 3f6f 093c f77d f7bd
000002a0: 149f 16bd e559 523e 3e96 063c be87 d83d
000002b0: 9f2a b140 dc74 84be c764 643d aea1 bf3c
000002c0: 7399 b33c 9984 993f f328 f5ba 24e5 cd3e
000002d0: 2b78 bcbd b218 2dbe e8cb dbc0 b87c ae3e
000002e0: 9e53 23bc 2ee9 34bf ad80 29bd 9aa9 34bf
000002f0: 92a8 2fbb 0b58 dbbd 8da7 d9c0 9818 b33e
00000300: fe23 8a3d ce00 d63d d873 86bc 8a91 3c3e
00000310: 6852 9c3c 532f a8bb f1d2 42bd e657 f63e
00000320: 7cdf 923d b6e9 9d3e 60f1 9f3d ab35 fabd
00000330: 057a 9bbe 4260 583e f8d9 e83d 2960 e03c
00000340: 9a73 3839 231a 52bc 2618 8f3c 9a63 a43c
00000350: a468 e83b 3ac8 27bd 06eb bf40 a533 98be
00000360: 36f2 5ebc fa30 55be 2cd4 563c b0b3 47be
00000370: fc18 debc 5782 0a3e c136 b5bc a5f2 15be
00000380: a726 923c 613b 143e 9ef6 513c 249f 9d3e
00000390: 0402 88bc a4e1 34be 884b 54bd c2a2 d3bb
000003a0: 3360 8dbd ab7b 0abe 56c5 31bd b073 86bc
000003b0: 3deb b9bd 4313 fcbd 950b 873d 0ebf 923e
000003c0: cd72 07bd 9d42 b2be 4efa 84bd 96aa 97be
000003d0: e7aa 173d 0a63 043e 69c7 56bd d1f5 ab3e
000003e0: 840c 85bc 0a16 ddbe 67e5 f03c 7eb2 5e3e
000003f0: 3a67 a9be a81d 833f 0dc0 91c0 42e8 4f3e
0.3435588 0.104662895 -0.0369303 0.18609044 -0.043973297 -0.36657155 -0.035102163 0.2138163
0.0021374056 -0.010377346 5.9873967 -0.30466095 1.4273591 0.014851697 2.071819 0.013262568
-0.004300005 -0.00079277245 0.01959168 0.021648172 -0.031444456 -0.17336887 -0.021943534 -0.17030245
0.0136450175 -0.18527368 -0.086467415 -0.5487472 -0.08885583 0.097909346 -0.0020387594 -0.23785177
-0.058863517 -0.2630709 0.6430278 -0.27881655 -0.034944516 -0.14258239 -0.015944093 -0.0065725385
0.0243475 -0.23089996 0.029902153 -0.0012304834 -8.311134 0.4736617 -0.09520994 0.18841021
-0.03745975 0.13684517 0.13373227 -0.058933407 -0.05006516 0.13489418 -0.024201643 -0.39914554
0.006116722 0.47663048 0.021796145 0.14861058 0.067555055 0.31781504 -0.094933175 0.062545694
0.29723188 -0.01646601 0.20968059 0.15870103 -0.1305745 -0.32250145 0.69617695 0.3758523
0.17339224 0.20579135 -0.51375437 -0.034749474 -1.1226143 -0.18581417 -0.9640641 0.25072768
0.00064472196 0.25378594 0.21008657 0.13793926 0.017179899 0.09867323 0.032214392 0.028523918
0.18249872 -0.008456085 -0.08210247 -0.23184972 0.02128274 -0.030297983 0.010704564 -0.22639507
-0.17473409 -0.19451757 0.062833674 -0.067712784 0.06163865 0.17669761 -0.12900011 0.108896084
0.023640972 -0.16337374 0.028530974 0.28873366 0.139858 -0.27828962 -0.023042688 -0.04368516
0.16737965 -0.071316734 -0.10002455 0.17510736 0.09358661 -0.05574504 0.12456179 -0.10702606
-0.036459316 0.11111908 -0.056768045 -0.3535148 0.033490114 0.17535558 0.5828854 -0.00021247631
0.24691972 0.34649006 -0.11582419 0.21060495 -5.523751 0.27497828 0.14855134 -0.18672264
-6.123898 0.30417675 4.190445 -0.46320567 4.5260534 -0.19616988 -0.2519592 0.12755024
0.0076407967 0.12612513 -0.018217992 -0.12038195 -0.03448477 -0.2607205 7.9479113 -0.4205211
0.004847477 0.15564246 -0.29804236 1.1981683 0.009858774 -0.3269426 0.01629221 0.318079
0.024984572 0.77896893 0.022240281 -0.09600286 -0.1013258 0.22149937 0.00838834 -0.12084573
-0.036772802 0.20542105 0.0082145315 0.10572766 5.536453 -0.25870407 0.05576017 0.023392525
0.021923756 1.199359 -0.001870422 0.40213883 -0.09202608 -0.16903952 -6.868641 0.34079528
-0.009968666 -0.70668304 -0.04138248 -0.7057129 -0.0026803357 -0.10710152 -6.801703 0.349797
0.06745146 0.10449372 -0.01641266 0.18414894 0.019082263 -0.0051325946 -0.04756445 0.48113936
0.071715325 0.3084237 0.078097105 -0.122172676 -0.3036653 0.2113047 0.11369699 0.027389603
0.00017590672 -0.012823614 0.01746757 0.020067025 0.0070925523 -0.040962435 5.9974394 -0.29726902
-0.013607552 -0.20819464 0.013112109 -0.19502139 -0.027111523 0.13526283 -0.022120835 -0.14643343
0.017840696 0.14475776 0.012815146 0.30785477 -0.016602524 -0.176642 -0.051829845 -0.006458611
-0.06903114 -0.13523738 -0.043401085 -0.016412586 -0.09078071 -0.123083614 0.06594006 0.28661388
-0.033068467 -0.34816447 -0.06493054 -0.29622334 0.03702822 0.12928405 -0.052436266 0.3358598
-0.01624132 -0.43180877 0.029406263 0.21747777 -0.33086568 1.0243425 -4.5546937 0.20303443

weight_hh_l0 f4 [128, 32]
00000000: 85c3 4b40 81e1 99c0 f0fc 8dbf e810 8e40
00000010: 0664 9ec0 9676 8ebf dae2 203e 9d05 40bf
00000020: 217b 8dbf e217 e0bf 9c0f 63c0 a255 ca3f
00000030: ab1d 173f 346b 60bf 4ae8 533f 6417 93c0
00000040: 8c86 643f 1f35 26c0 e2f1 d3bf 6334 9ebe
00000050: 9057 e3bf ae96 fe3d a0d4 57bf a3e6 d53f
00000060: 3094 953f c71c f2bf 741d ac3e 511b 85c0
00000070: c793 75bf c9d4 5d3f d8b3 bc3f c530 6b3f
00000080: 611d 5ebf 796f 98bf 32a0 183e 0f08 b83f
00000090: 31ca fb3d 88b3 3040 af9a b13d 97dd 0240
000000a0: a4ec 14c0 f28a ffbf c5aa cabf 63ec 7bbe
000000b0: 73c7 e3bf 31d0 213f d550 3f3e e365 37c0
000000c0: b70d 0d3f e436 7940 ae75 cabd a898 2340
000000d0: d740 69c0 dfa0 943f 6265 34c0 113d bdbe
000000e0: b8a0 3bbf 16e8 81bf ec79 acbf 0451 13c0
000000f0: ce4a 553c e3fd 4d3f 2213 f1be a68d 51c0
00000100: b800 4c3f cade 063f a275 4dc0 4a5d 6240
00000110: 9e5d 11bf 3f18 bf3f cea2 3bbe 780c c7be
00000120: 7439 81be 5c2e d7bf 018b a9c0 f72e e6be
00000130: e00a c9be 274c 743f 4c14 e93e 0c5f 013f
00000140: bc98 08bf ff31 19bf 418a 6840 689c 093d
00000150: 7220 49bf de45 723f b7e4 2840 1c14 a8be
00000160: be73 0c41 f07b d4bf 8ad3 5d3c 6633 473d
00000170: b93c fcbe 08de 67bf e61c af3e 8acb 41bf
00000180: f0ff a33f 85b7 5bbf d960 4a3f 408c 8dbe
00000190: 66ab 55bf cb0a 13be ee52 ac3c d486 f73e
000001a0: 58a5 8abf 14b6 93bf abce b3bf d3fb 50bf
000001b0: bedb 2640 6d34 06c0 8845 25bf 045f 8dc0
000001c0: 47c9 c7bd 2bc4 a73f 975a 94bf 7c93 913e
000001d0: 3bab 5940 64b5 493f ad4e 91bf b741 21bf
000001e0: 6f72 d4be 7e39 be3c 4add a2be 7de5 1940
000001f0: 4ca6 b33d 17b0 cd3f 4abe 9cbe 2a15 3a3f
00000200: 6007 763f 6044 9a3f d14a cd3e 39e9 c43f
00000210: 8c85 983f 5da4 26c0 198b 5a3f 6628 bebf
00000220: 5a3d 38be 6a66 93bf b622 a9c0 c673 fcbe
00000230: 0ed6 833f 2435 e3bf 0c8b 0abf eafc d2bf
00000240: 654b 523f 7182 883e 43c7 60be 7d4b 3e40
00000250: 387c 1440 4728 723f 5b38 19bf f7b2 dfbf
00000260: c08d de3f e0b2 6fbf d387 bb3e 3251 c3bd
00000270: 0817 cb40 612d 86bf 06b8 46bf 7767 bbbf
00000280: d2c5 6640 8c3c 82be fb13 89bf 9d94 8e40
00000290: d7dc 10c0 7c52 37c0 e05d 3a40 754a 4240
000002a0: 70a7 4dbf 5f15 07c0 f858 853c 852f 9c3f
000002b0: 6e9c ae3f 8257 da3e 8a62 96bf b71d 71c0
000002c0: 7f79 e9be dc4c 81c0 b72d 2fbe 5cb7 ba3f
000002d0: f01c 6c40 b016 b33f 26cb f43e c80a 983e
000002e0: 948b 95bf b7b3 43c0 edb8 9940 e80d e6bf
000002f0: 728e 4cbd bab1 b4bf 8d38 acbe 124a 8e3f
00000300: 03f9 2b40 7750 ed3f 8dfe a03f d06a e6bf
00000310: ea86 4340 4f0f 5b40 7b38 06c0 33f5 fabf
00000320: e3b3 83bf 38ac b7bf 70a9 3fbf 57bf 1fc0
00000330: 7517 54be 8f6e 8e3f 66d8 bd3f 5d95 9fc0
00000340: d187 5c3f 2958 a8bf 7e91 d6bf 8811 a4bd
00000350: 349d 2b3f fcde 68bf c050 c0be 48ab 363f
00000360: 2c1c 883f 2db1 3b3f 99ef 10c0 d22d d0bf
00000370: bc22 bf3f 511a 833f b06b c33f 4300 463e
00000380: 5bb7 4cbf 1325 7cc0 95e0 6bc0 92dd 1c40
00000390: a5d6 383e fcd4 473f 7556 0cbe e577 98bf
000003a0: 3536 c33f 842f 39c0 fb60 9c3d 546e a340
000003b0: ea47 f73e 8c58 c6bf 6aca 763f 3ef0 33c0
000003c0: f7db 1ac0 9852 62bf c707 17c0 27c2 34c0
000003d0: 7b35 43bf f598 a53d 3d21 bd40 ab78 46be
000003e0: 7f29 5d3d 235c dc3f 95c7 63bd ff68 12c0
000003f0: aeef 1b40 a205 563f 5de8 c6bf b4ec 28bf
3.1838086 -4.8087773 -1.1092815 4.4395638 -4.94971 -1.112994 0.15711537 -0.75008565
-1.1053201 -1.7507288 -3.5478277 1.5807383 0.59029645 -0.8766358 0.8277632 -4.5966053
0.892678 -2.5969923 -1.6558192 -0.30899343 -1.7761097 0.124310836 -0.84308815 1.671101
1.1685848 -1.8915032 0.3361622 -4.1595845 -0.95928615 0.8665281 1.4742384 0.9187129
-0.8676358 -1.1909019 0.1490486 1.4377459 0.12294424 2.7609577 0.08672082 2.0447748
-2.3269434 -1.9964278 -1.5833365 -0.24601893 -1.7795242 0.632083 0.18683179 -2.8655937
0.5509905 3.8939753 -0.09885727 2.5561924 -3.6445825 1.1611594 -2.818688 -0.36960652
-0.7329211 -1.0148952 -1.3474708 -2.3018198 0.013018323 0.80465525 -0.4708491 -3.2742705
0.79688597 0.526837 -3.2103047 3.536944 -0.56783473 1.4929274 -0.18323824 -0.388767
-0.25239146 -1.6811023 -5.2982183 -0.44957706 -0.3926611 0.954287 0.45523298 0.50535655
-0.53358054 -0.59841913 3.6334383 0.033596426 -0.7856513 0.9463786 2.6389596 -0.32827842
8.778257 -1.6600323 0.013539204 0.048633 -0.49265078 -0.9057317 0.34201735 -0.757012
1.2812481 -0.85826904 0.7905403 -0.27646065 -0.8346466 -0.14359586 0.021035638 0.48345053
-1.0831709 -1.1539941 -1.4047445 -0.81634253 2.607162 -2.0969498 -0.6455922 -4.4178486
-0.097551875 1.3106741 -1.1590146 0.28432834 3.401076 0.78792405 -1.1352135 -0.629909
-0.41493556 0.023220774 -0.31809455 2.4046319 0.08771953 1.6069363 -0.3061393 0.72688544
0.96105003 1.2052116 0.40096143 1.5383674 1.1915755 -2.603782 0.85368496 -1.4856079
-0.17992154 -1.1515629 -5.285487 -0.49307078 1.0299699 -1.7750592 -0.5411842 -1.6483433
0.8214629 0.2666202 -0.21951012 2.9733574 2.3200817 0.9459271 -0.59851617 -1.7476491
1.7387009 -0.93632317 0.36627063 -0.09536971 6.3465614 -1.0482599 -0.7762455 -1.464095
3.605824 -0.2543682 -1.0709223 4.4556413 -2.263479 -2.8644094 2.9119797 3.0357945
-0.80333614 -2.1106794 0.016277775 1.2202002 1.3641489 0.42644888 -1.1748822 -3.7674387
-0.45600507 -4.0406322 -0.17107283 1.4587207 3.6892662 1.3991299 0.4781124 0.29695725
-1.1683221 -3.057844 4.803824 -1.7972994 -0.049940534 -1.4116738 -0.33636895 1.1116354
2.6870735 1.8540181 1.2577683 -1.8001347 3.0551095 3.4228094 -2.0971973 -1.9606079
-1.0289272 -1.4349432 -0.74867916 -2.4960535 -0.20712073 1.112749 1.4831665 -4.986983
0.8614474 -1.3151904 -1.6763151 -0.08011156 0.6703675 -0.9096525 -0.37561607 0.71355104
1.0633597 0.73317224 -2.2646239 -1.6263983 1.4932475 1.0242406 1.5267239 0.19336037
-0.7996728 -3.9397628 -3.6855824 2.4510236 0.1805063 0.78059363 -0.13704856 -1.1911589
1.5250918 -2.8935251 0.07635685 5.107218 0.48297054 -1.5495772 0.9640261 -2.8115382
-2.4196756 -0.8840728 -2.3598497 -2.82435 -0.7625348 0.08085815 5.9103074 -0.19381969
0.053994652 1.7215618 -0.055610258 -2.2876585 2.436504 0.83602345 -1.5539662 -0.6598618

bias_ih_l0 f4 [128]
00000000: fd01 12bf 69c2 15c0 6a4b e140 da0a 85c0
00000010: e5e3 13be 119d 8a3f 0421 afbf 9454 a5be
00000020: a176 cc3f 0356 9d3f 45a1 4340 0083 7340
00000030: 3bfc 003f 9ca1 d8bf 78b9 d0be 9e0d d03e
00000040: 2461 d040 20d5 3fbf bc57 a8be ae64 943f
00000050: c3ff 76c0 23b7 0740 e956 92be c2b3 573f
00000060: 2b2c 1240 7ccb ac3e 0e2c b5bf 2967 1d41
00000070: 3c45 cf3d 49bf 4abf bd38 253f 1d7d 2040
00000080: b5a5 73bf 608e 8dbd 1c88 a7bf 09e4 f2bf
00000090: 0c76 21c0 2767 633d 3005 91bf 2cff cfbf
000000a0: bec5 97bf 3973 2dbf 948b 9dbf d269 66bf
000000b0: 3ca7 adbe 8725 0fbf 6cad 5fbf 551a 91bf
000000c0: ab8d 84bf bb55 b3bf e018 8f3e af74 b8be
000000d0: 7342 a3be 6b75 813e 3e4b d2bf 80a5 b5bf
000000e0: f46e 09bf 681c bebf 21b0 79bf ca0c 4bbf
000000f0: d0e6 eabf 09cb ab3e c2ac abbf 8993 f0bf
00000100: ca04 c9be a4fe 5bbf b67a 0d3f d2af bd3f
00000110: 4f3d fa3e cd57 ee3e fa33 5a3e 5bd5 fbbf
00000120: 8436 edbe 8b62 d8bf 271b d4c0 f732 67bf
00000130: 5154 3f40 4adb ef3f cc06 81be afb3 f4bf
00000140: d10c 013f 9b78 33bf 389f 3b3f e00c 633f
00000150: d493 ba3f 539f 0d3e 5758 d03e 09f4 00c0
00000160: dd91 5cbf 5176 acbe c90a c93e c201 e93d
00000170: bbc5 023d 270c e43d e78e 1f40 271b 4fbf
00000180: b694 b1bf 2131 06c0 052a 8bbe 6cf4 823f
00000190: 43a3 c940 4031 ffbe f817 acbf 6adf f8be
000001a0: 5d15 1e40 3355 9a3f 1bda fd3f 94f3 04bc
000001b0: cd32 0dbe 3bea bdbf 5dd6 593f d40a 91bf
000001c0: f1ed 29bf 4096 9ebe 5ebe d8bf 5dd3 e33f
000001d0: 8758 96bf 1c1d 4040 6add 3840 7546 4c3f
000001e0: a618 09be 7276 d0bf a9a1 97bf 79e8 0341
000001f0: 67d7 453e 307b dcbf f9ab 043c 9f5d f4be
-0.57034284 -2.3399909 7.040456 -4.1575747 -0.14442404 1.0829183 -1.368195 -0.3229109
1.5973703 1.2291874 3.056718 3.8048706 0.50384873 -1.6924319 -0.407665 0.4063539
6.511858 -0.7493458 -0.32879436 1.1593225 -3.8593605 2.1205528 -0.28581932 0.84258664
2.2839458 0.33748996 -1.415407 9.837686 0.10120627 -0.7919813 0.645397 2.5076363
-0.95174724 -0.069119215 -1.3088412 -1.8975841 -2.52283 0.055518296 -1.1329708 -1.6249747
-1.1857221 -0.6775394 -1.2308221 -0.9000522 -0.33916652 -0.5591664 -0.87373996 -1.1336161
-1.0355734 -1.4010538 0.27948666 -0.36026523 -0.31886634 0.25284895 -1.6429212 -1.4191132
-0.53684926 -1.4852419 -0.97534376 -0.7931639 -1.8351688 0.3355334 -1.3412097 -1.8795024
-0.39261466 -0.85935426 0.5526537 1.4819281 0.488749 0.46551362 0.2130889 -1.9674486
-0.46330655 -1.6905073 -6.6283145 -0.9031214 2.9895213 1.8738797 -0.25200498 -1.9117335
0.5041018 -0.70105904 0.73289824 0.8869152 1.4576364 0.13830309 0.40692398 -2.0148947
-0.8616007 -0.33684018 0.3926604 0.113772884 0.03192685 0.111351304 2.493097 -0.80900806
-1.3873508 -2.0967486 -0.27180496 1.0230842 6.3011794 -0.49842262 -1.3444815 -0.4860795
2.470054 1.2057251 1.9832186 -0.008114714 -0.1378891 -1.4837106 0.8509272 -1.133143
-0.66378695 -0.30974007 -1.6933095 1.7798878 -1.1745766 3.0017767 2.888514 0.7979501
-0.13388309 -1.6286147 -1.184621 8.244256 0.1932045 -1.7225094 0.008097642 -0.47727677

bias_hh_l0 f4 [128]
00000000: dd15 00bf c26c 0dc0 4400 ea40 a52c 7fc0
00000010: fa8a d5bc 723e 953f aac5 d6bf e659 bcbe
00000020: 8c1d d33f 753c b13f 18d8 4c40 9f6f 7440
00000030: 03e7 023f c176 e3bf 0dc2 4fbe 2e77 013f
00000040: 9525 ce40 25ae f9be 374f d7be db43 983f
00000050: 1a01 74c0 0cc0 fc3f 9e2c 82be a657 413f
00000060: 8455 1040 1a3c c83d 25bf c8bf 98b8 1c41
00000070: 613a fc3d 93cf 45bf 0a2d b03e d71a 1940
00000080: 230b 7ebf 66a3 4d3e 9c08 9ebf fa66 e7bf
00000090: 7116 1dc0 c9d0 0d3e df41 a4bf 82b4 c8bf
000000a0: 5cc1 85bf db4f f1be 7f8f a6bf 6e0a 7fbf
000000b0: ebcb c6be 8aba 30bf 7c53 2fbf 2279 87bf
000000c0: 3eac 8abf 6ae2 c2bf 449f 893e e760 f2bd
000000d0: 4a5a 09bf 1339 9f3e 0003 ddbf 6301 9cbf
000000e0: c24e 29bf 2d01 bebf ff46 4ebf d548 43bf
000000f0: 9410 f8bf 4c0f 6a3e f22a 8cbf 6a78 dbbf
00000100: d177 c9be 56d0 81bf ff48 063f 28a1 bd3f
00000110: 8fcc e33e 31d2 093f 4836 573e e432 05c0
00000120: 0bc6 3fbe 3012 e8bf 8055 d3c0 1507 6dbf
00000130: 4104 4740 f5c4 ef3f c550 04bf 176b e2bf
00000140: 5a03 e53e 5539 27bf 45ec f93e 0955 2f3f
00000150: 5931 a83f e75f 653e 192f 3d3e 9095 f2bf
00000160: 0800 38bf 0a17 52be a92b fc3e b924 1cbe
00000170: 7a22 a73d b3d8 593b b281 2d40 d6c7 6cbf
00000180: ffaf babf cf65 09c0 ac49 25be ba52 823f
00000190: aa7f d140 542c 3fbf 7a45 b2bf 86e5 1bbf
000001a0: 5e7c 2540 c5a8 8b3f 5ec7 fd3f 7add 5dbe
000001b0: deb6 bbbc 91af cfbf 79d6 843f 6e50 88bf
000001c0: 9775 e3be 5aac 2abe 9bf7 d7bf 1d82 f03f
000001d0: c637 91bf 9f9f 3740 a8f6 3b40 86c6 693f
000001e0: 29d6 c6be 29de dabf bc2a 9ebf 4170 0341
000001f0: 3dfe c23d e014 e2bf a293 9d3e 7a97 52be
-0.5003336 -2.209763 7.3125324 -3.9871 -0.026067246 1.1659682 -1.6779072 -0.36787337
1.6493392 1.3846575 3.2006893 3.8193128 0.51133746 -1.7770616 -0.20288868 0.5057248
6.4420877 -0.48765674 -0.42052624 1.1895708 -3.8125672 1.9746108 -0.25424665 0.75524366
2.2552195 0.097770885 -1.5683333 9.795067 0.123158224 -0.7726986 0.34409362 2.3922632
-0.99235743 0.20081863 -1.2346377 -1.8078301 -2.4544947 0.13849176 -1.2832602 -1.5680087
-1.0449634 -0.47131237 -1.3012542 -0.9962529 -0.38827452 -0.69034636 -0.6848676 -1.0583842
-1.0833814 -1.5225346 0.26879323 -0.11834889 -0.53653395 0.31098232 -1.726654 -1.2187923
-0.661358 -1.4844109 -0.8057708 -0.7628301 -1.9380059 0.22857398 -1.0950606 -1.7146122
-0.39349225 -1.0141704 0.52455133 1.4814806 0.44492003 0.5383635 0.210168 -2.081231
-0.18727891 -1.813055 -6.604187 -0.9258893 3.1096346 1.8731982 -0.51685745 -1.7688931
0.4472912 -0.65321857 0.48813072 0.6848913 1.314006 0.22399865 0.18474998 -1.8951893
-0.7187505 -0.20516601 0.4925206 -0.15248384 0.08160873 0.0033240735 2.711041 -0.92492425
-1.458496 -2.146839 -0.16141385 1.0181496 6.546834 -0.74677014 -1.3927453 -0.608971
2.5857158 1.0910879 1.9826467 -0.21666518 -0.022914346 -1.6225454 1.0377952 -1.0649545
-0.4442565 -0.1666731 -1.6872438 1.8789707 -1.1345146 2.8691175 2.9369297 0.9131855
-0.38835266 -1.7099048 -1.2356791 8.214906 0.09521148 -1.766262 0.30776697 -0.20565596

weight f4 [1, 32]
00000000: 1209 d1bd 0496 62bd 3aca 4d3d cce6 cfbc
00000010: 122f 763e f7e3 df3d 5107 943b 423f 75bd
00000020: b260 ccbb b264 08bd e7a5 5c3e d780 1f3d
00000030: 8afc 0e3d 6565 b03c 9de8 073e 1883 babc
00000040: 0db5 513e c407 5c3d 6dde b63a c853 983c
00000050: d3db cabc 8dde 38bc 6372 60be b771 cf3d
00000060: 0ae2 263e 04dd 813d 7f28 aabc 7df0 0dbf
00000070: 3674 723e 673e 6fbc 774e 8d3d 6f1c 6dbd
-0.10206808 -0.055318847 0.050241686 -0.025378607 0.24041393 0.10932153 0.0045174737 -0.05987478
-0.006237113 -0.033299156 0.21547662 0.03894123 0.03490881 0.021532724 0.13272329 -0.022767588
0.20479222 0.053718343 0.0013951786 0.018594638 -0.024763023 -0.011283529 -0.21918635 0.10129111
0.16297165 0.063409835 -0.020771263 -0.5544508 0.23677143 -0.01460228 0.068997316 -0.057888445
