models/mlp_motor_model.pth (torch, 8920 bytes, 5 tensors)

network.0.weight f4 [32, 6]
000000 85 14 89 3d 73 4a c1 be 86 c8 0c 3f 14 be 7b 3e
       0.06693367 -0.37752113 0.54993474 0.24584228
000010 d9 77 7d be 95 6b 0c 3d ba bb c3 3e 11 4a 91 3d
       -0.2475275 0.034282286 0.38229162 0.07094205
000020 78 62 3a bf 70 26 be 3d 04 7c 92 bd ee a7 9e bd
       -0.728065 0.09284675 -0.0715256 -0.07746874
000030 9f eb 79 3e 09 2c 4d be eb 4a 86 bd 72 d4 83 3e
       0.24406289 -0.2003633 -0.06557258 0.2574802
000040 34 83 56 3e 63 21 91 be c2 6e 79 3e 66 51 cd 3e
       0.20948488 -0.28345785 0.24358657 0.40101165
000050 ba eb e6 3d 21 dc 6f bd 78 ab d3 3e 75 29 1a bd
       0.1127543 -0.05855954 0.41341758 -0.037637193
000060 5a 9e be be 38 23 9e 3e b7 bf d7 3e f3 53 ed 3d
       -0.37230188 0.30886245 0.42138454 0.11588278
000070 b4 f8 c0 3e 4b e3 21 bf ba 7d a7 bb 49 97 ad bc
       0.37689745 -0.63237447 -0.0051114233 -0.021190302
000080 35 de 9c 3c a0 cf 90 3e a5 ef 64 bf 3d ab 0e 3f
       0.019148925 0.28283405 -0.8942817 0.5573004
000090 c0 7d c3 bb 86 28 2a 3d 3d da 46 3f d2 d6 9e be
       -0.0059659183 0.041542552 0.77676755 -0.3102327
0000a0 72 f9 22 3f 30 58 fc be 18 c8 ae bb 6f bd 25 bd
       0.63661873 -0.49286032 -0.0053339116 -0.04046386
0000b0 4c 08 e6 bf 63 37 22 bd 75 1d 09 3d 1c 08 b1 3e
       -1.7971282 -0.039603602 0.033475358 0.345765
0000c0 94 71 7a 3d e1 c9 e8 bf 36 52 28 3f 56 ca 2e 3e
       0.061143473 -1.8186609 0.65750444 0.17069373
0000d0 57 9f e2 bd 6a 67 2d bf a7 22 a4 3d 68 21 49 3e
       -0.11065548 -0.6773592 0.08014422 0.1964165
0000e0 8e e3 9d bf d6 4e 9d bc 4a 27 80 3e 6e 28 b4 3e
       -1.2335069 -0.019202631 0.25029975 0.35187095
0000f0 f3 61 b2 bd 3e e6 b9 3d 72 28 ea bf 2c 3c 99 3d
       -0.087100886 0.09077118 -1.8293593 0.0748218
000100 93 ad 75 3e 49 79 c0 3e e7 0d 57 3d aa af 49 be
       0.23991995 0.37592533 0.052503493 -0.19695917
000110 42 79 dd 3f cb 75 03 bd 28 58 1f bc 1c 5c b5 be
       1.730263 -0.032094758 -0.009725608 -0.35421836
000120 8d 02 f3 be 0e 90 0b bf e8 35 40 3f 73 40 9b bd
       -0.47462884 -0.54516685 0.75082254 -0.07580652
000130 b2 64 04 3e 7d 2f c9 be 14 bf 7c be 57 a7 80 be
       0.12929037 -0.39294043 -0.24682266 -0.2512767
000140 aa 05 91 be 97 3f f7 bd 94 31 7f be dc 0a 12 3f
       -0.28324634 -0.12072676 -0.24921256 0.5704782
000150 cc 05 3a 3e 95 a8 6d be f8 82 3a 3d 0e 60 31 bf
       0.18166274 -0.2320884 0.045535058 -0.6928719
000160 ee 91 04 be f5 1e fe 3e 45 2a 68 bd c8 b5 d2 3e
       -0.12946293 0.49632993 -0.056680936 0.41154313
000170 0f d0 2c bd a7 45 3e be 10 51 99 be 8b 0a 4b 3e
       -0.042190608 -0.18581258 -0.29944658 0.1982824
000180 fc 2f ea bc 9b 33 52 3d 1b cd 88 3f 7a 12 88 3e
       -0.028587334 0.051318746 1.0687593 0.26576596
000190 52 43 87 3e f9 99 ff be f6 b9 5b 3e 11 b9 63 bf
       0.2641855 -0.4992216 0.21457657 -0.88954264
0001a0 26 4b e9 3d 85 18 ca bd 68 57 f8 3e 63 5c 5a be
       0.113912866 -0.09867958 0.48504186 -0.21324305
0001b0 73 7b 75 bd 6a 75 73 bd d4 c8 e8 bf 44 4e 81 bd
       -0.059932183 -0.059438147 -1.8186288 -0.06313756
0001c0 f4 b7 8b 3d 8c f3 d0 3e 0a b0 a8 3e 23 98 a6 be
       0.06822196 0.40810812 0.32946807 -0.32537946
0001d0 b4 4c b9 bd c2 7e 8d 3e 95 93 3f 3f 1d 70 2e be
       -0.09047833 0.2763577 0.7483457 -0.17034955
0001e0 62 b4 18 3d f8 2a 89 3d 8e 5b e5 3d 41 0a a9 be
       0.0372814 0.06697649 0.11199103 -0.33015636
0001f0 18 08 59 3f 1f 2d 13 bf dc ca 4a 3d f7 af cc bc
       0.84777975 -0.57490724 0.049509868 -0.02498625
000200 87 25 b6 bf 2d 0f 31 3e 24 7b e4 bd ee 8e 81 3e
       -1.4230202 0.17290945 -0.111563 0.2530436
000210 94 0d e4 bd ad ce 88 be 40 c7 02 be c7 87 0b bf
       -0.11135402 -0.2672018 -0.1277132 -0.54504055
000220 c0 48 c5 3e cf 8a 88 be 07 af 37 bd 1f 45 52 3e
       0.38532066 -0.26668403 -0.044844653 0.2053418
000230 46 a8 2c 3d 1e a7 33 bf 86 26 2a 3e ba 16 1c 3f
       0.042152666 -0.70176876 0.16616258 0.6097218
000240 d9 7a 13 bc c7 af df bc f0 d4 e8 3f ed 3a 7f bd
       -0.009001457 -0.027305497 1.8189983 -0.062312055
000250 54 d1 da bb 52 ff 8f be 41 20 1b 3c a7 f4 1f bc
       -0.006677786 -0.2812448 0.009468139 -0.0097629195
000260 0e 63 be bf a8 7f 52 3d a1 f8 b3 3a a8 db 86 3e
       -1.4873979 0.051391274 0.0013730713 0.2633946
000270 0e cc 0a 3d 08 53 ca 3c 62 86 cd 3f 81 71 87 3d
       0.033886008 0.024697796 1.6056635 0.06613446
000280 0f 2d d8 bd 52 97 97 be 52 b0 6d be 8d 4d 67 3e
       -0.10555469 -0.29607636 -0.23211792 0.22588177
000290 d3 0e f0 bf 79 51 b9 be 2c 43 08 3f 4d d1 0b 3e
       -1.8754524 -0.3619497 0.53227496 0.1365406
0002a0 95 b0 1b 3f 39 b2 35 bd ed 40 74 be 53 91 16 bf
       0.6081632 -0.04435942 -0.23852892 -0.588155
0002b0 0d 3a 43 3f 14 72 e3 3c c5 1d f8 bc f9 c5 65 bd
       0.76260453 0.027764358 -0.030287633 -0.056097005
0002c0 70 f2 06 c0 8c e7 7d bc 89 f7 83 3d 5f 28 c9 3e
       -2.1085472 -0.0154971 0.06443698 0.39288613
0002d0 11 84 e5 3c b2 99 8f 3d c1 d5 cd bf 5f 71 64 bb
       0.028017076 0.07011737 -1.6080858 -0.0034857614
0002e0 63 bb 1a 3e 1b 58 3f 3e 23 cb 8c 3d 60 fe 9c bd
       0.15110545 0.18685953 0.06874683 -0.07665706
0002f0 15 2d eb 3f 69 7c 3f 3c 5f a9 72 bc ed 6e c9 bd
       1.8373133 0.011687377 -0.014810889 -0.098356105

network.0.bias f4 [32]
000000 cd d1 3e 3d 78 8b 0c 3d 6e 6d 95 3b 2d 46 59 3d
       0.0465868 0.034312695 0.004560164 0.05304544
000010 2c 2a bb 3c 44 67 53 3b f7 10 c6 3c 77 95 e9 3c
       0.022847258 0.0032257596 0.024178011 0.028513653
000020 42 b2 c8 ba 2a e3 d1 bc 57 c7 6b 3d 5a 71 37 3d
       -0.0015311914 -0.025621016 0.057563152 0.044785835
000030 38 78 8c 3c 9f 1a aa 3c 76 32 15 3c 5c 51 cd 3c
       0.017147169 0.020764647 0.009106269 0.02506321
000040 e5 69 a9 bc 62 2f 04 ba 43 c2 3b bd 3a af 47 bc
       -0.020680377 -0.0005042461 -0.04583956 -0.012187773
000050 7c 06 fd bc a1 45 2f bc 07 d2 d2 3b e4 38 93 3c
       -0.030886881 -0.010697753 0.0064337286 0.017971464
000060 4b fd 2d 3d 4c 25 04 bc 4b 03 36 bb f5 2b fb 3c
       0.042477887 -0.008065533 -0.002777296 0.030660609
000070 b5 ab 47 bd c3 c7 e9 bc fd 91 61 3c 14 f3 e1 bc
       -0.048747737 -0.028537637 0.0137677165 -0.027581729

network.2.weight f4 [32, 32]
000000 e0 86 78 bd 1b da 62 3d a1 47 9f bd 58 dc 1c 3e
       -0.0606755 0.055383783 -0.07777334 0.1531843
000010 83 45 7d be f0 91 79 3e 6c bd 8f be c4 ad 91 3e
       -0.24733548 0.24372077 -0.28074205 0.28452885
000020 10 ec c6 3e ab 1f ed bd 21 45 a9 be 92 2f da 3d
       0.38851976 -0.11578306 -0.33060554 0.106536046
000030 bc b0 90 3e f8 56 ed 3e 31 a9 22 3f 26 40 08 be
       0.28259838 0.46355414 0.63539416 -0.1330572
000040 16 bb 52 bc 1e 05 08 3f 91 5d 30 be f5 56 8f 3e
       -0.012861988 0.5313281 -0.17223193 0.2799603
000050 6f 0b a2 bd 02 f3 11 be 30 28 be 3e fa 68 f2 3e
       -0.07912337 -0.14252856 0.37140036 0.47345716
000060 0b 3a a9 be 9c d8 46 3d 06 a5 ae bd a2 d7 8a bd
       -0.33052096 0.04854642 -0.085275695 -0.0677941
000070 74 01 4c 3f 77 9c 90 3e 88 e7 7d 3d 58 2d 47 3e
       0.7968972 0.28244373 0.061988384 0.19450891
000080 5b 13 02 bd 80 a7 0f 3f 67 53 6f 3d a3 35 f1 3c
       -0.03175674 0.5611496 0.058429148 0.029444521
000090 40 dd 34 3b 30 0d 2e 3e cc 41 c6 be 15 7e c1 3e
       0.0027597696 0.16997218 -0.38722074 0.37791505
0000a0 9d 61 8f 3e 86 e4 3b 3e f4 d0 c8 3d 7a ce cf bd
       0.2800416 0.18348894 0.0980548 -0.10146804
0000b0 bc 26 f6 bd 36 0b 36 be 54 bf 8c bd 76 fb 74 be
       -0.12019107 -0.17777714 -0.068724304 -0.2392405
0000c0 1a 48 18 be b5 f1 4f 3c c7 b5 04 3f 21 bd 95 be
       -0.14871255 0.012691905 0.5183987 -0.29245856
0000d0 b7 1a 00 bf 0b d3 44 3f e5 73 ad bd 93 da cc be
       -0.50040764 0.76884526 -0.08469371 -0.4001051
0000e0 bf 97 2f bf d8 1d 8e 3e a5 53 2b bf 62 64 db 3e
       -0.6859092 0.27757144 -0.66924506 0.42850024
0000f0 b9 da c9 3e 92 4a 11 3f c0 50 01 3e 47 d8 20 be
       0.39424685 0.5675441 0.1262846 -0.15707503
000100 97 58 93 3e 04 95 fd bd c3 bc 24 3e 90 56 8d be
       0.28778526 -0.12381938 0.16087632 -0.27605104
000110 0d 1f 53 be f3 1d be bf 00 43 21 3e dd 5e 60 3e
       -0.20617314 -1.485289 0.15748215 0.21911187
000120 bf c3 a0 bd 11 d2 a5 3d 31 39 47 3e 9e 4a c7 be
       -0.078498356 0.080967076 0.1945541 -0.38924116
000130 aa 87 fc bd b1 c1 c2 be 58 6e 4b bf 5e 98 dd be
       -0.12330563 -0.380384 -0.79465246 -0.4328031
000140 00 be 5d 3e 0c d4 fd bd 26 05 81 be 88 30 1d be
       0.2165451 -0.1239396 -0.2519924 -0.15350544
000150 ca 1d 2f 3f 83 90 b5 bc 09 b3 fd 3e 3a 4a 36 3f
       0.6840483 -0.022163635 0.49550655 0.7120701
000160 9d 66 73 3e 14 76 93 be 68 1c 9e 3c 67 5b 9c 3e
       0.23769613 -0.28801024 0.019300655 0.30538484
000170 40 e7 72 3c f0 55 97 3e b1 b2 66 3d 12 8c 9b be
       0.014825642 0.29557753 0.056322757 -0.30380303
000180 4d 9e c4 be a9 f3 ca 3e 80 30 de be 3c a7 56 be
       -0.38402024 0.39639023 -0.43396378 -0.20962232
000190 06 ab 3a 3e 1e 6d 2a 3f ac fc 3a be d1 05 57 3e
       0.18229303 0.6657275 -0.18260449 0.20998313
0001a0 d6 ee c8 bd f9 84 0c be b5 52 55 3d 24 6f b2 3d
       -0.09811179 -0.137226 0.05208083 0.08712605
0001b0 28 70 02 3e 31 ef b4 3e 58 9e fc 3e 45 66 0a 3f
       0.12738097 0.3533874 0.49339557 0.540623
0001c0 f6 ed 98 3e db bb f2 bd ca 3e ab be 30 64 b7 3d
       0.2986905 -0.11852237 -0.33446342 0.08954656
0001d0 8a 46 f0 bd 22 48 18 3d 28 1b ee bd 17 7d 4a bf
       -0.11732204 0.037178166 -0.116262734 -0.7909712
0001e0 07 20 a2 3e 4e e4 a9 3c 76 aa 82 3d 8e d2 a4 be
       0.3166506 0.020738747 0.06380169 -0.3219189
0001f0 2a 9b 92 3e 0f e6 56 3e f1 07 48 be 12 ed 23 3e
       0.28634006 0.20986198 -0.1953428 0.16008404
000200 f9 47 a9 be af 8b e4 3e 71 6a 6b 3d 15 29 64 be
       -0.33062723 0.4463782 0.057474557 -0.22281297
000210 74 24 cd be 28 31 79 3e f3 09 23 bf da 12 7c 3f
       -0.40066874 0.24335158 -0.63687056 0.98466265
000220 82 19 37 3e 89 45 3d 3f 9d d1 54 3f 4d 8a a4 be
       0.17880824 0.7393423 0.83132344 -0.32136765
000230 77 29 f0 be ae 65 6d 3c 78 03 83 3e ff 28 f4 bd
       -0.46906635 0.014489574 0.25588584 -0.11921882
000240 1c d3 92 be 74 78 82 be b3 d0 9f 3f f8 61 2c 3d
       -0.2867669 -0.25482523 1.2485565 0.042085618
000250 8c b8 a6 be f5 53 2c 3f ba 23 75 3e 99 98 c6 bd
       -0.32562673 0.6731561 0.2393941 -0.096970744
000260 94 74 ae bf 65 00 a6 3f 77 87 d1 bf c5 2e 08 3f
       -1.3629327 1.296887 -1.6369466 0.53196365
000270 6f 8c e8 3c 0e 66 dd 3f e2 df 92 3f 3a 68 28 bf
       0.028387276 1.729677 1.1474574 -0.6578404
000280 4d cb f4 3d 28 49 27 bd cc 2f 67 3e a8 f3 18 3d
       0.11952839 -0.04084125 0.22576827 0.037341744
000290 36 1a fb bd c7 b9 0e 3f 40 8c a6 bd fa 87 03 bf
       -0.12260859 0.55752224 -0.08132219 -0.5137936
0002a0 f2 f3 c6 3e 59 79 45 3d 23 2f 48 be 22 3d cb 3e
       0.3885799 0.04821143 -0.19549231 0.39695078
0002b0 60 7c 96 3e 86 d3 f8 3d 57 b8 5f be 18 40 bb 3c
       0.29391766 0.1214972 -0.21847664 0.02285771
0002c0 f6 72 01 bd 30 29 c2 bc 41 5a 0b bf 67 3f 24 3d
       -0.031603776 -0.02370128 -0.5443459 0.040099528
0002d0 49 7c 1e be 73 5b 90 bd a1 bc ec bc 12 4e 0a 3e
       -0.15477099 -0.070486926 -0.028898539 0.13506344
0002e0 bc 4f da 3d 4b 77 f6 bd 94 79 39 3f c1 52 09 bf
       0.106597394 -0.12034472 0.7245114 -0.536419
0002f0 d1 58 07 be 1f 35 17 bf 81 a7 19 bf 3b c8 9e 3d
       -0.13217475 -0.5906543 -0.60021216 0.07753035
000300 12 2b 3c be 54 aa a0 be bd e6 9a 3e 25 73 e6 be
       -0.18375805 -0.3137995 0.30254164 -0.45009723
000310 20 7e 1c be 6a e1 2c bf a2 44 5d 3e 48 ba 5d 3e
       -0.15282488 -0.67531455 0.21608213 0.21653092
000320 2e 1d 1c 3e dc 47 99 3e c7 ce ca 3e d5 c8 ac be
       0.15245506 0.29937637 0.39610884 -0.33746973
000330 15 e1 42 be 79 fb 01 3e 46 09 95 be 50 a3 b2 be
       -0.19031174 0.12693585 -0.29108638 -0.34890223
000340 51 45 70 be 52 f6 d8 3d f1 c3 3c bd 14 bc 40 3d
       -0.23463942 0.10593857 -0.0460853 0.047054365
000350 81 b5 00 3f ca 2d 7d 3e f7 05 ca 3e d4 96 f4 bc
       0.50276953 0.24724498 0.39457676 -0.029857077
000360 96 ff aa be 38 12 26 3e 65 91 70 be f6 fd f7 ba
       -0.33398122 0.16217887 -0.23492964 -0.0018920291
000370 08 26 91 be 74 4a 9f 3c 80 e2 1e bd 58 98 5d 3b
       -0.28349328 0.019444682 -0.038790226 0.0033812728
000380 a4 10 ef 3d 55 ed 44 be 60 e6 2d be cf e2 f5 bd
       0.11673096 -0.1923116 -0.16982412 -0.12006151
000390 8b 51 96 3e e9 c8 2b 3e 80 c9 45 3e bb e5 23 be
       0.29359087 0.1677586 0.19315147 -0.16005604
0003a0 eb 8f 9d 3b 04 91 8c 3d 6a 9b 43 3d 47 52 3c 3e
       0.004808416 0.06863597 0.047755636 0.18390761
0003b0 6b 42 fb bc eb c1 a1 be 50 0a 27 bf 6a b2 61 bd
       -0.030671319 -0.3159326 -0.6525011 -0.05510179
0003c0 b6 39 40 3f 4d bf ad be 5e 8c 43 be 95 f1 12 be
       0.7508806 -0.33935013 -0.19096515 -0.14349969
0003d0 a7 35 b6 3d e5 d9 34 be 98 69 d8 be 80 f7 a6 be
       0.08896952 -0.17661245 -0.42268062 -0.32610703
0003e0 69 6e a8 3e e8 ff a7 3c 19 93 9b 3e 49 96 08 be
       0.32896736 0.020507768 0.30385664 -0.13338579
0003f0 e6 78 9e be 9c 0b be be de 95 8d be 27 12 fa 3e
       -0.30951613 -0.37118232 -0.27653402 0.48841974

network.2.bias f4 [32]
000000 04 df 2d 3d 1d b7 cc 3a ec 28 87 3c 58 fc 90 bb
       0.042449012 0.0015618537 0.016499005 -0.004424613
000010 0e cc fe bd 8d 44 64 bc 4f d6 30 3d a4 44 20 3d
       -0.12441264 -0.013932359 0.04317313 0.03912796
000020 eb 99 10 3c c1 d3 67 bd 3f db d1 bd 3c 71 15 bd
       0.008825759 -0.05659843 -0.10246896 -0.03648494
000030 57 18 82 3c ac c9 9c bc 1c 89 ab bc 8a c2 af bc
       0.015880747 -0.019139133 -0.020939402 -0.021455068
000040 45 8f 84 3e 13 b2 8e 3d 46 de 41 3d 86 a4 c8 bc
       0.25890556 0.06967559 0.047331117 -0.024492513
000050 71 e5 a0 3e ee d8 a7 bb 70 8e 80 3e dd 00 b8 bb
       0.3142505 -0.0051222956 0.2510867 -0.0056153373
000060 e6 dd f5 bc 18 36 2e 3d dc aa 96 3b a6 1d 89 bd
       -0.030013036 0.042532057 0.0045980047 -0.06695108
000070 39 dc a3 bc f0 fb 83 bc d0 07 7a 3d ef eb dd 3b
       -0.020002471 -0.016111344 0.061042607 0.0067725102

network.4.weight f4 [1, 32]
000000 0f a3 d6 3e b0 5f d8 3e 6d d1 3b bf 3c a8 d2 3e
       0.4192128 0.42260504 -0.73366433 0.41143978
000010 38 bb 25 bf a5 e6 0c bf 40 ac a9 be bf fb 98 3e
       -0.647388 -0.55039436 -0.3313923 0.29879567
000020 95 b0 98 3e 4b c6 f4 be d9 b8 d9 be 6d b5 2e bf
       0.2982222 -0.47807536 -0.4252384 -0.68245584
000030 bf 29 17 bf b3 09 89 3f 58 21 a1 bf 5e ae 87 be
       -0.59048074 1.0706085 -1.2588301 -0.2650022
000040 b6 2f 17 3f 3d 4a 6d 3e 96 fa 01 3f ab 6c 62 3e
       0.59057176 0.23172851 0.5077299 0.22111766
000050 be 71 57 bf 66 6d 9d be f4 02 07 bf c9 0f e6 be
       -0.8415793 -0.30747527 -0.5273888 -0.44933918
000060 6a 2a 54 3f 7e 46 1f bf ab c7 a2 3e 2b 3a 01 bf
       0.8287722 -0.6221694 0.3179296 -0.5047938
000070 94 c1 e6 3e 18 88 f4 3e 20 cf 41 3f 05 a5 0f be
       0.45069563 0.4776008 0.7570667 -0.14027794
